…
 'substructures_use_substructures': True,
 'symmetry_feature': False,
 'target_columns': ['logP'],
 'task_names': ['logP'],
 'test': False,
 'test_fold_index': None,
 'train_data_size': None,
 'undirected': False,
 'use_input_features': False,
 'val_fold_index': None,
 'warmup_epochs': 2.0}
Loading data
Number of tasks = 1
Splitting data with seed 0
Total size = 13,688 | train size = 8,726 | val size = 1,540 | test size = 3,422
Fitting scaler
Building model 0
MoleculeModel(
  (encoder): MPN(
    (encoder): MPNEncoder(
      (dropout_layer): Dropout(p=0.0, inplace=False)
      (act_func): ReLU()
      (W_i): Linear(in_features=147, out_features=800, bias=False)
      (W_h): Linear(in_features=800, out_features=800, bias=False)
      (W_o): Linear(in_features=933, out_features=800, bias=True)
    )
  )
  (ffn): Sequential(
    (0): Dropout(p=0.0, inplace=False)
    (1): Linear(in_features=800, out_features=800, bias=True)
    (2): ReLU()
    (3): Dropout(p=0.0, inplace=False)
    (4): Linear(in_features=800, out_features=1, bias=True)
  )
)
Number of parameters = 2,146,401
Moving model to cuda
Epoch 0
Train function
Loss = 1.9151e-02, PNorm = 52.0809, GNorm = 4.9480, lr_0 = 1.0259e-04
Loss = 1.7133e-02, PNorm = 52.0862, GNorm = 7.9501, lr_0 = 1.0259e-04
Loss = 1.3112e-02, PNorm = 52.0914, GNorm = 19.1771, lr_0 = 1.0259e-04
Loss = 1.3206e-02, PNorm = 52.0960, GNorm = 15.9885, lr_0 = 1.0259e-04
…
 'substructures_use_substructures': True,
 'symmetry_feature': False,
 'target_columns': ['logP'],
 'task_names': ['logP'],
 'test': False,
 'test_fold_index': None,
 'train_data_size': None,
 'undirected': False,
 'use_input_features': True,
 'val_fold_index': None,
 'warmup_epochs': 2.0}
Loading data
Number of tasks = 1
Splitting data with seed 0
Total size = 13,688 | train size = 9,307 | val size = 1,643 | test size = 2,738
Fitting scaler
Building model 0
MoleculeModel(
  (encoder): MPN(
    (encoder): MPNEncoder(
      (dropout_layer): Dropout(p=0.0, inplace=False)
      (act_func): ReLU()
      (W_i): Linear(in_features=147, out_features=800, bias=False)
      (W_h): Linear(in_features=800, out_features=800, bias=False)
      (W_o): Linear(in_features=933, out_features=800, bias=True)
    )
  )
  (ffn): Sequential(
    (0): Dropout(p=0.0, inplace=False)
    (1): Linear(in_features=999, out_features=800, bias=True)
    (2): ReLU()
    (3): Dropout(p=0.0, inplace=False)
    (4): Linear(in_features=800, out_features=1, bias=True)
  )
)
Number of parameters = 2,305,601
Moving model to cuda
Epoch 0
Train function
Loss = 1.6566e-02, PNorm = 52.9156, GNorm = 6.1394, lr_0 = 1.0242e-04
Loss = 1.3325e-02, PNorm = 52.9203, GNorm = 25.0468, lr_0 = 1.0242e-04
Loss = 9.9290e-03, PNorm = 52.9251, GNorm = 10.4647, lr_0 = 1.0242e-04
Loss = 8.4329e-03, PNorm = 52.9307, GNorm = 2.1929, lr_0 = 1.0242e-04
…
