…
 'substructures_use_substructures': True,
 'symmetry_feature': False,
 'target_columns': ['logP', 'Energy'],
 'task_names': ['logP', 'Energy'],
 'test': False,
 'test_fold_index': None,
 'train_data_size': None,
 'undirected': False,
 'use_input_features': False,
 'val_fold_index': None,
 'warmup_epochs': 2.0}
Loading data
Number of tasks = 2
Splitting data with seed 0
Total size = 13,851 | train size = 9,418 | val size = 1,662 | test size = 2,771
Fitting scaler
Building model 0
MoleculeModel(
  (encoder): MPN(
    (encoder): MPNEncoder(
      (dropout_layer): Dropout(p=0.0, inplace=False)
      (act_func): ReLU()
      (W_i): Linear(in_features=147, out_features=800, bias=False)
      (W_h): Linear(in_features=800, out_features=800, bias=False)
      (W_o): Linear(in_features=933, out_features=800, bias=True)
    )
  )
  (substructures_encoder): SubstructureLayer(
    (encoder): SubstructureEncoder(
      (dropout_layer): Dropout(p=0.0, inplace=False)
      (act_func): ReLU()
      (W_o): Linear(in_features=165, out_features=300, bias=True)
    )
  )
  (ffn): Sequential(
    (0): Dropout(p=0.0, inplace=False)
    (1): Linear(in_features=1100, out_features=800, bias=True)
    (2): ReLU()
    (3): Dropout(p=0.0, inplace=False)
    (4): Linear(in_features=800, out_features=2, bias=True)
  )
)
Number of parameters = 2,437,002
Moving model to cuda
Epoch 0
Train function
Loss = 2.1082e-02, PNorm = 55.2731, GNorm = 1.3329, lr_0 = 1.0239e-04
Loss = 1.8884e-02, PNorm = 55.2758, GNorm = 6.5208, lr_0 = 1.0239e-04
Loss = 1.7659e-02, PNorm = 55.2807, GNorm = 2.6073, lr_0 = 1.0239e-04
Loss = 1.3783e-02, PNorm = 55.2878, GNorm = 3.8125, lr_0 = 1.0239e-04
…
 'substructures_use_substructures': True,
 'symmetry_feature': False,
 'target_columns': ['logP', 'Energy'],
 'task_names': ['logP', 'Energy'],
 'test': False,
 'test_fold_index': None,
 'train_data_size': None,
 'undirected': False,
 'use_input_features': True,
 'val_fold_index': None,
 'warmup_epochs': 2.0}
Loading data
Number of tasks = 2
Splitting data with seed 0
Total size = 13,851 | train size = 9,418 | val size = 1,662 | test size = 2,771
Fitting scaler
Building model 0
MoleculeModel(
  (encoder): MPN(
    (encoder): MPNEncoder(
      (dropout_layer): Dropout(p=0.0, inplace=False)
      (act_func): ReLU()
      (W_i): Linear(in_features=147, out_features=300, bias=False)
      (W_h): Linear(in_features=300, out_features=300, bias=False)
      (W_o): Linear(in_features=433, out_features=300, bias=True)
    )
  )
  (ffn): Sequential(
    (0): Dropout(p=0.0, inplace=False)
    (1): Linear(in_features=499, out_features=300, bias=True)
    (2): ReLU()
    (3): Dropout(p=0.0, inplace=False)
    (4): Linear(in_features=300, out_features=2, bias=True)
  )
)
Number of parameters = 414,902
Moving model to cuda
Epoch 0
Train function
Loss = 1.9993e-02, PNorm = 35.0900, GNorm = 2.0443, lr_0 = 1.0239e-04
Loss = 1.6017e-02, PNorm = 35.0913, GNorm = 4.0343, lr_0 = 1.0239e-04
Loss = 1.4999e-02, PNorm = 35.0936, GNorm = 4.3617, lr_0 = 1.0239e-04
Loss = 1.1880e-02, PNorm = 35.0968, GNorm = 2.4412, lr_0 = 1.0239e-04
…
