…
 'substructures_use_substructures': True,
 'symmetry_feature': False,
 'target_columns': ['logD', 'logP'],
 'task_names': ['logD', 'logP'],
 'test': False,
 'test_fold_index': None,
 'train_data_size': None,
 'undirected': False,
 'use_input_features': True,
 'val_fold_index': None,
 'warmup_epochs': 2.0}
Loading data
Number of tasks = 2
Splitting data with seed 0
Total size = 15,032 | train size = 11,274 | val size = 3,758 | test size = 2,653
Fitting scaler
Building model 0
MoleculeModel(
  (encoder): MPN(
    (encoder): MPNEncoder(
      (dropout_layer): Dropout(p=0.0, inplace=False)
      (act_func): ReLU()
      (W_i): Linear(in_features=147, out_features=300, bias=False)
      (W_h): Linear(in_features=300, out_features=300, bias=False)
      (W_o): Linear(in_features=433, out_features=300, bias=True)
    )
  )
  (ffn): Sequential(
    (0): Dropout(p=0.0, inplace=False)
    (1): Linear(in_features=499, out_features=300, bias=True)
    (2): ReLU()
    (3): Dropout(p=0.0, inplace=False)
    (4): Linear(in_features=300, out_features=2, bias=True)
  )
)
Number of parameters = 414,902
Moving model to cuda
Epoch 0
Train function
Loss = 1.9976e-02, PNorm = 35.0897, GNorm = 4.1144, lr_0 = 1.2200e-04
Loss = 1.9948e-02, PNorm = 35.0916, GNorm = 3.7086, lr_0 = 1.4200e-04
Loss = 1.5198e-02, PNorm = 35.0950, GNorm = 5.5799, lr_0 = 1.6200e-04
Loss = 1.3925e-02, PNorm = 35.0991, GNorm = 3.5163, lr_0 = 1.8200e-04
…
 'substructures_use_substructures': True,
 'symmetry_feature': False,
 'target_columns': ['logD'],
 'task_names': ['logD'],
 'test': False,
 'test_fold_index': None,
 'train_data_size': None,
 'undirected': False,
 'use_input_features': False,
 'val_fold_index': None,
 'warmup_epochs': 2.0}
Loading data
Number of tasks = 1
Splitting data with seed 0
Total size = 3,541 | train size = 2,655 | val size = 886 | test size = 625
Fitting scaler
Building model 0
MoleculeModel(
  (encoder): MPN(
    (encoder): MPNEncoder(
      (dropout_layer): Dropout(p=0.0, inplace=False)
      (act_func): ReLU()
      (W_i): Linear(in_features=147, out_features=300, bias=False)
      (W_h): Linear(in_features=300, out_features=300, bias=False)
      (W_o): Linear(in_features=433, out_features=300, bias=True)
    )
  )
  (ffn): Sequential(
    (0): Dropout(p=0.0, inplace=False)
    (1): Linear(in_features=300, out_features=300, bias=True)
    (2): ReLU()
    (3): Dropout(p=0.0, inplace=False)
    (4): Linear(in_features=300, out_features=1, bias=True)
  )
)
Number of parameters = 354,901
Moving model to cuda
Epoch 0
Train function
Loss = 2.0493e-02, PNorm = 34.0110, GNorm = 5.4938, lr_0 = 1.0849e-04
Loss = 1.9860e-02, PNorm = 34.0119, GNorm = 2.3289, lr_0 = 1.0849e-04
Loss = 1.7722e-02, PNorm = 34.0135, GNorm = 6.2600, lr_0 = 1.0849e-04
Loss = 1.8290e-02, PNorm = 34.0156, GNorm = 2.7477, lr_0 = 1.0849e-04
…
 'substructures_use_substructures': True,
 'symmetry_feature': False,
 'target_columns': ['logD'],
 'task_names': ['logD'],
 'test': False,
 'test_fold_index': None,
 'train_data_size': None,
 'undirected': False,
 'use_input_features': True,
 'val_fold_index': None,
 'warmup_epochs': 2.0}
Loading data
Number of tasks = 1
Splitting data with seed 0
Total size = 3,541 | train size = 2,655 | val size = 886 | test size = 625
Fitting scaler
Building model 0
MoleculeModel(
  (encoder): MPN(
    (encoder): MPNEncoder(
      (dropout_layer): Dropout(p=0.0, inplace=False)
      (act_func): ReLU()
      (W_i): Linear(in_features=147, out_features=300, bias=False)
      (W_h): Linear(in_features=300, out_features=300, bias=False)
      (W_o): Linear(in_features=433, out_features=300, bias=True)
    )
  )
  (ffn): Sequential(
    (0): Dropout(p=0.0, inplace=False)
    (1): Linear(in_features=499, out_features=300, bias=True)
    (2): ReLU()
    (3): Dropout(p=0.0, inplace=False)
    (4): Linear(in_features=300, out_features=1, bias=True)
  )
)
Number of parameters = 414,601
Moving model to cuda
Epoch 0
Train function
Loss = 2.8252e-02, PNorm = 35.0058, GNorm = 6.3649, lr_0 = 1.0849e-04
Loss = 2.0975e-02, PNorm = 35.0054, GNorm = 6.2100, lr_0 = 1.0849e-04
Loss = 1.8422e-02, PNorm = 35.0061, GNorm = 3.1628, lr_0 = 1.0849e-04
Loss = 1.7571e-02, PNorm = 35.0074, GNorm = 2.2595, lr_0 = 1.0849e-04
…
 'substructures_use_substructures': True,
 'symmetry_feature': False,
 'target_columns': ['logP', 'logD'],
 'task_names': ['logP', 'logD'],
 'test': False,
 'test_fold_index': None,
 'train_data_size': None,
 'undirected': False,
 'use_input_features': False,
 'val_fold_index': None,
 'warmup_epochs': 2.0}
Loading data
Number of tasks = 2
Splitting data with seed 0
Total size = 15,032 | train size = 11,274 | val size = 3,758 | test size = 2,653
Fitting scaler
Building model 0
MoleculeModel(
  (encoder): MPN(
    (encoder): MPNEncoder(
      (dropout_layer): Dropout(p=0.0, inplace=False)
      (act_func): ReLU()
      (W_i): Linear(in_features=147, out_features=300, bias=False)
      (W_h): Linear(in_features=300, out_features=300, bias=False)
      (W_o): Linear(in_features=433, out_features=300, bias=True)
    )
  )
  (ffn): Sequential(
    (0): Dropout(p=0.0, inplace=False)
    (1): Linear(in_features=300, out_features=300, bias=True)
    (2): ReLU()
    (3): Dropout(p=0.0, inplace=False)
    (4): Linear(in_features=300, out_features=2, bias=True)
  )
)
Number of parameters = 355,202
Moving model to cuda
Epoch 0
Train function
Fold 0
Command line
python ./scripts/SOTA/dmpnn/train.py --dataset_type regression --num_workers 4 --config_path_yaml ./params.yaml
Args
{'activation': 'ReLU',
 'additional_encoder': False,
 'atom_messages': False,
 'batch_size': 50,
 'bias': False,
 'cache_cutoff': 10000,
 'checkpoint_dir': None,
…
