…
 'substructures_use_substructures': True,
 'symmetry_feature': False,
 'target_columns': ['logS'],
 'task_names': ['logS'],
 'test': False,
 'test_fold_index': None,
 'train_data_size': None,
 'undirected': False,
 'use_input_features': True,
 'val_fold_index': None,
 'warmup_epochs': 2.0}
Loading data
Number of tasks = 1
Splitting data with seed 0
Total size = 899 | train size = 674 | val size = 225 | test size = 159
Fitting scaler
Building model 0
MoleculeModel(
  (encoder): MPN(
    (encoder): MPNEncoder(
      (dropout_layer): Dropout(p=0.0, inplace=False)
      (act_func): ReLU()
      (W_i): Linear(in_features=147, out_features=800, bias=False)
      (W_h): Linear(in_features=800, out_features=800, bias=False)
      (W_o): Linear(in_features=933, out_features=800, bias=True)
    )
  )
  (ffn): Sequential(
    (0): Dropout(p=0.0, inplace=False)
    (1): Linear(in_features=895, out_features=800, bias=True)
    (2): ReLU()
    (3): Dropout(p=0.0, inplace=False)
    (4): Linear(in_features=800, out_features=1, bias=True)
  )
)
Number of parameters = 2,222,401
Moving model to cuda
Epoch 0
Train function
Loss = 1.6663e-02, PNorm = 52.5080, GNorm = 3.6680, lr_0 = 4.8077e-04
Validation rmse logS = 1.157555
Validation R2 logS = 0.705495
Epoch 1
Train function
Loss = 7.1012e-03, PNorm = 52.5711, GNorm = 10.3615, lr_0 = 8.6154e-04
Validation rmse logS = 1.088776
Validation R2 logS = 0.739453
…
 'substructures_use_substructures': True,
 'symmetry_feature': False,
 'target_columns': ['logS'],
 'task_names': ['logS'],
 'test': False,
 'test_fold_index': None,
 'train_data_size': None,
 'undirected': False,
 'use_input_features': True,
 'val_fold_index': None,
 'warmup_epochs': 2.0}
Loading data
Number of tasks = 1
Splitting data with seed 0
Total size = 899 | train size = 674 | val size = 225 | test size = 159
Fitting scaler
Building model 0
MoleculeModel(
  (encoder): MPN(
    (encoder): MPNEncoder(
      (dropout_layer): Dropout(p=0.0, inplace=False)
      (act_func): ReLU()
      (W_i): Linear(in_features=147, out_features=800, bias=False)
      (W_h): Linear(in_features=800, out_features=800, bias=False)
      (W_o): Linear(in_features=933, out_features=800, bias=True)
    )
  )
  (substructures_encoder): SubstructureLayer(
    (encoder): SubstructureEncoder(
      (dropout_layer): Dropout(p=0.0, inplace=False)
      (act_func): ReLU()
      (W_o): Linear(in_features=125, out_features=300, bias=True)
    )
  )
  (ffn): Sequential(
    (0): Dropout(p=0.0, inplace=False)
    (1): Linear(in_features=1195, out_features=800, bias=True)
    (2): ReLU()
    (3): Dropout(p=0.0, inplace=False)
    (4): Linear(in_features=800, out_features=1, bias=True)
  )
)
Number of parameters = 2,500,201
Moving model to cuda
Epoch 0
Train function
Loss = 1.4278e-02, PNorm = 55.2298, GNorm = 11.9961, lr_0 = 4.8077e-04
Validation rmse logS = 1.203626
Validation R2 logS = 0.681586
Epoch 1
Train function
Loss = 6.8882e-03, PNorm = 55.2923, GNorm = 3.4466, lr_0 = 8.6154e-04
Validation rmse logS = 0.974743
Validation R2 logS = 0.791172
…
