…
 'substructures_use_substructures': True,
 'symmetry_feature': False,
 'target_columns': ['Energy', 'logP'],
 'task_names': ['Energy', 'logP'],
 'test': False,
 'test_fold_index': None,
 'train_data_size': None,
 'undirected': False,
 'use_input_features': True,
 'val_fold_index': None,
 'warmup_epochs': 2.0}
Loading data
Number of tasks = 2
Splitting data with seed 0
Total size = 11,849 | train size = 8,886 | val size = 2,963 | test size = 2,091
Fitting scaler
Building model 0
MoleculeModel(
  (encoder): MPN(
    (encoder): MPNEncoder(
      (dropout_layer): Dropout(p=0.0, inplace=False)
      (act_func): ReLU()
      (W_i): Linear(in_features=147, out_features=800, bias=False)
      (W_h): Linear(in_features=800, out_features=800, bias=False)
      (W_o): Linear(in_features=933, out_features=800, bias=True)
    )
  )
  (ffn): Sequential(
    (0): Dropout(p=0.0, inplace=False)
    (1): Linear(in_features=999, out_features=800, bias=True)
    (2): ReLU()
    (3): Dropout(p=0.0, inplace=False)
    (4): Linear(in_features=800, out_features=2, bias=True)
  )
)
Number of parameters = 2,306,402
Moving model to cuda
Epoch 0
Train function
Loss = 1.6633e-02, PNorm = 52.9431, GNorm = 11.7814, lr_0 = 1.0254e-04
Loss = 1.2986e-02, PNorm = 52.9470, GNorm = 3.9759, lr_0 = 1.0254e-04
Loss = 1.0019e-02, PNorm = 52.9517, GNorm = 1.9697, lr_0 = 1.0254e-04
Loss = 9.9877e-03, PNorm = 52.9575, GNorm = 3.2550, lr_0 = 1.0254e-04
…
 'substructures_use_substructures': True,
 'symmetry_feature': False,
 'target_columns': ['logP'],
 'task_names': ['logP'],
 'test': False,
 'test_fold_index': None,
 'train_data_size': None,
 'undirected': False,
 'use_input_features': True,
 'val_fold_index': None,
 'warmup_epochs': 2.0}
Loading data
Number of tasks = 1
Splitting data with seed 0
Total size = 11,710 | train size = 8,782 | val size = 2,928 | test size = 2,067
Fitting scaler
Building model 0
MoleculeModel(
  (encoder): MPN(
    (encoder): MPNEncoder(
      (dropout_layer): Dropout(p=0.0, inplace=False)
      (act_func): ReLU()
      (W_i): Linear(in_features=147, out_features=800, bias=False)
      (W_h): Linear(in_features=800, out_features=800, bias=False)
      (W_o): Linear(in_features=933, out_features=800, bias=True)
    )
  )
  (ffn): Sequential(
    (0): Dropout(p=0.0, inplace=False)
    (1): Linear(in_features=999, out_features=800, bias=True)
    (2): ReLU()
    (3): Dropout(p=0.0, inplace=False)
    (4): Linear(in_features=800, out_features=1, bias=True)
  )
)
Number of parameters = 2,305,601
Moving model to cuda
Epoch 0
Train function
Loss = 1.6047e-02, PNorm = 52.9137, GNorm = 4.8166, lr_0 = 1.0257e-04
Loss = 1.3206e-02, PNorm = 52.9184, GNorm = 7.6508, lr_0 = 1.0257e-04
Loss = 1.1541e-02, PNorm = 52.9237, GNorm = 1.6640, lr_0 = 1.0257e-04
Loss = 9.9138e-03, PNorm = 52.9298, GNorm = 3.6048, lr_0 = 1.0257e-04
…
