…
 'substructures_use_substructures': True,
 'symmetry_feature': False,
 'target_columns': ['logD', 'logP'],
 'task_names': ['logD', 'logP'],
 'test': False,
 'test_fold_index': None,
 'train_data_size': None,
 'undirected': False,
 'use_input_features': True,
 'val_fold_index': None,
 'warmup_epochs': 2.0}
Loading data
Number of tasks = 2
Splitting data with seed 0
Total size = 15,032 | train size = 11,274 | val size = 3,758 | test size = 2,653
Fitting scaler
Building model 0
MoleculeModel(
  (encoder): MPN(
    (encoder): MPNEncoder(
      (dropout_layer): Dropout(p=0.0, inplace=False)
      (act_func): ReLU()
      (W_i): Linear(in_features=147, out_features=300, bias=False)
      (W_h): Linear(in_features=300, out_features=300, bias=False)
      (W_o): Linear(in_features=433, out_features=300, bias=True)
    )
  )
  (substructures_encoder): SubstructureLayer(
    (encoder): SubstructureEncoder(
      (dropout_layer): Dropout(p=0.0, inplace=False)
      (act_func): ReLU()
      (W_o): Linear(in_features=125, out_features=300, bias=True)
    )
  )
  (ffn): Sequential(
    (0): Dropout(p=0.0, inplace=False)
    (1): Linear(in_features=799, out_features=300, bias=True)
    (2): ReLU()
    (3): Dropout(p=0.0, inplace=False)
    (4): Linear(in_features=300, out_features=2, bias=True)
  )
)
Number of parameters = 542,702
Moving model to cuda
Epoch 0
Train function
Fold 0
Command line
python ./scripts/SOTA/dmpnn/train.py --dataset_type regression --num_workers 4 --config_path_yaml ./params.yaml
Args
{'activation': 'ReLU',
 'additional_encoder': True,
 'atom_messages': False,
 'batch_size': 50,
 'bias': False,
 'cache_cutoff': 10000,
 'checkpoint_dir': None,
…
 'substructures_use_substructures': True,
 'symmetry_feature': False,
 'target_columns': ['logD', 'logP'],
 'task_names': ['logD', 'logP'],
 'test': False,
 'test_fold_index': None,
 'train_data_size': None,
 'undirected': False,
 'use_input_features': True,
 'val_fold_index': None,
 'warmup_epochs': 2.0}
Loading data
Number of tasks = 2
Splitting data with seed 0
Total size = 15,032 | train size = 11,274 | val size = 3,758 | test size = 2,653
Fitting scaler
Building model 0
MoleculeModel(
  (encoder): MPN(
    (encoder): MPNEncoder(
      (dropout_layer): Dropout(p=0.0, inplace=False)
      (act_func): ReLU()
      (W_i): Linear(in_features=147, out_features=800, bias=False)
      (W_h): Linear(in_features=800, out_features=800, bias=False)
      (W_o): Linear(in_features=933, out_features=800, bias=True)
    )
  )
  (substructures_encoder): SubstructureLayer(
    (encoder): SubstructureEncoder(
      (dropout_layer): Dropout(p=0.0, inplace=False)
      (act_func): ReLU()
      (W_o): Linear(in_features=165, out_features=300, bias=True)
    )
  )
  (ffn): Sequential(
    (0): Dropout(p=0.0, inplace=False)
    (1): Linear(in_features=1299, out_features=800, bias=True)
    (2): ReLU()
    (3): Dropout(p=0.0, inplace=False)
    (4): Linear(in_features=800, out_features=2, bias=True)
  )
)
Number of parameters = 2,596,202
Moving model to cuda
Epoch 0
Train function
Loss = 1.6009e-02, PNorm = 55.8249, GNorm = 2.4150, lr_0 = 1.0200e-04
Loss = 1.7152e-02, PNorm = 55.8293, GNorm = 4.2002, lr_0 = 1.0200e-04
Loss = 1.2563e-02, PNorm = 55.8334, GNorm = 2.4912, lr_0 = 1.0200e-04
Loss = 1.1343e-02, PNorm = 55.8384, GNorm = 2.0053, lr_0 = 1.0200e-04
…
