…
 'split_sizes': (0.8, 0.1, 0.1),
 'split_type': 'k-fold',
 'symmetry_feature': False,
 'target_columns': None,
 'task_names': ['logP'],
 'test': False,
 'test_fold_index': None,
 'train_data_size': None,
 'undirected': False,
 'use_input_features': True,
 'val_fold_index': None,
 'warmup_epochs': 2.0}
Loading data
Number of tasks = 1
Splitting data with seed 0
Total size = 11,710 | train size = 8,782 | val size = 2,928 | test size = 2,067
Fitting scaler
Building model 0
MoleculeModel(
  (encoder): MPN(
    (encoder): MPNEncoder(
      (dropout_layer): Dropout(p=0.0, inplace=False)
      (act_func): ReLU()
      (W_i): Linear(in_features=147, out_features=300, bias=False)
      (W_h): Linear(in_features=300, out_features=300, bias=False)
      (W_o): Linear(in_features=433, out_features=300, bias=True)
    )
  )
  (ffn): Sequential(
    (0): Dropout(p=0.0, inplace=False)
    (1): Linear(in_features=500, out_features=300, bias=True)
    (2): ReLU()
    (3): Dropout(p=0.0, inplace=False)
    (4): Linear(in_features=300, out_features=1, bias=True)
  )
)
Number of parameters = 414,901
Moving model to cuda
Epoch 0
Train function
Loss = 5.1947e-02, PNorm = 35.0663, GNorm = 14.4716, lr_0 = 1.2829e-04
Loss = 3.8718e-02, PNorm = 35.0672, GNorm = 6.9936, lr_0 = 1.5400e-04
Loss = 3.6767e-02, PNorm = 35.0700, GNorm = 5.6218, lr_0 = 1.7971e-04
Loss = 3.9277e-02, PNorm = 35.0747, GNorm = 10.5151, lr_0 = 2.0543e-04
…
 'split_sizes': (0.8, 0.1, 0.1),
 'split_type': 'k-fold',
 'symmetry_feature': False,
 'target_columns': None,
 'task_names': ['logP'],
 'test': False,
 'test_fold_index': None,
 'train_data_size': None,
 'undirected': False,
 'use_input_features': True,
 'val_fold_index': None,
 'warmup_epochs': 2.0}
Loading data
Number of tasks = 1
Splitting data with seed 0
Total size = 11,710 | train size = 8,782 | val size = 2,928 | test size = 2,067
Fitting scaler
Building model 0
MoleculeModel(
  (encoder): MPN(
    (encoder): MPNEncoder(
      (dropout_layer): Dropout(p=0.0, inplace=False)
      (act_func): ReLU()
      (W_i): Linear(in_features=147, out_features=300, bias=False)
      (W_h): Linear(in_features=300, out_features=300, bias=False)
      (W_o): Linear(in_features=433, out_features=300, bias=True)
    )
  )
  (ffn): Sequential(
    (0): Dropout(p=0.0, inplace=False)
    (1): Linear(in_features=499, out_features=300, bias=True)
    (2): ReLU()
    (3): Dropout(p=0.0, inplace=False)
    (4): Linear(in_features=300, out_features=1, bias=True)
  )
)
Number of parameters = 414,601
Moving model to cuda
Epoch 0
Train function
Loss = 2.0353e-02, PNorm = 35.0059, GNorm = 10.7088, lr_0 = 1.2829e-04
Loss = 1.7586e-02, PNorm = 35.0072, GNorm = 2.6735, lr_0 = 1.5400e-04
Loss = 1.2193e-02, PNorm = 35.0113, GNorm = 1.6823, lr_0 = 1.7971e-04
Loss = 8.5233e-03, PNorm = 35.0177, GNorm = 7.0308, lr_0 = 2.0543e-04
…
 'test_fold_index': None,
 'train_data_size': None,
 'undirected': False,
 'use_input_features': False,
 'val_fold_index': None,
 'warmup_epochs': 2.0}
Loading data
Loss = 4.8957e-04, PNorm = 42.2851, GNorm = 0.8286, lr_0 = 5.9636e-04
Loss = 3.0583e-04, PNorm = 42.3020, GNorm = 0.3121, lr_0 = 5.9556e-04
Number of tasks = 1
Splitting data with seed 0
Total size = 11,710 | train size = 9,368 | val size = 2,342 | test size = 2,067
Fitting scaler
[[… Building model 0
MoleculeModel(
  (encoder): MPN(
    (encoder): MPNEncoder(
      (dropout_layer): Dropout(p=0.0, inplace=False)
      (act_func): ReLU()
      (W_i): Linear(in_features=147, out_features=300, bias=False)
      (W_h): Linear(in_features=300, out_features=300, bias=False)
      (W_o): Linear(in_features=433, out_features=300, bias=True)
    )
  )
  (ffn): Sequential(
    (0): Dropout(p=0.0, inplace=False)
    (1): Linear(in_features=300, out_features=300, bias=True)
    (2): ReLU()
    (3): Dropout(p=0.0, inplace=False)
    (4): Linear(in_features=300, out_features=1, bias=True)
  )
)
Number of parameters = 354,901
Moving model to cuda
Loss = 4.5481e-04, PNorm = 42.3143, GNorm = 0.5553, lr_0 = 5.9476e-04
Epoch 0
Train function
Validation rmse = 0.481944
Validation R2 = 0.931832
Epoch 24
Train function
Loss = 3.0392e-04, PNorm = 42.3229, GNorm = 0.4739, lr_0 = 5.9397e-04
Loss = 2.6805e-04, PNorm = 42.3342, GNorm = 0.3353, lr_0 = 5.9317e-04
…
